…
NormalInit: mean=0, std=0.01, bias=0 

auxiliary_head.convs.0.conv.weight - torch.Size([256, 512, 3, 3]): 
The value is the same before and after calling `init_weights` of EncoderDecoder  

auxiliary_head.convs.0.bn.weight - torch.Size([256]): 
The value is the same before and after calling `init_weights` of EncoderDecoder  

auxiliary_head.convs.0.bn.bias - torch.Size([256]): 
The value is the same before and after calling `init_weights` of EncoderDecoder  
2022-03-09 14:22:48,381 - mmseg - INFO - EncoderDecoder(
  (backbone): ConvNeXt(
    (downsample_layers): ModuleList(
      (0): Sequential(
        (0): Conv2d(3, 128, kernel_size=(4, 4), stride=(4, 4))
        (1): LayerNorm2d((128,), eps=1e-06, elementwise_affine=True)
      )
      (1): Sequential(
        (0): LayerNorm2d((128,), eps=1e-05, elementwise_affine=True)
        (1): Conv2d(128, 256, kernel_size=(2, 2), stride=(2, 2))
      )
      (2): Sequential(
        (0): LayerNorm2d((256,), eps=1e-05, elementwise_affine=True)
        (1): Conv2d(256, 512, kernel_size=(2, 2), stride=(2, 2))
      )
      (3): Sequential(
        (0): LayerNorm2d((512,), eps=1e-05, elementwise_affine=True)
        (1): Conv2d(512, 1024, kernel_size=(2, 2), stride=(2, 2))
      )
    )
    (stages): ModuleList(
      (0): Sequential(
        (0): ConvNeXtBlock(
          (depthwise_conv): Conv2d(128, 128, kernel_size=(7, 7), stride=(1, 1), padding=(3, 3), groups=128)
          (norm): LayerNorm2d((128,), eps=1e-06, elementwise_affine=True)
          (pointwise_conv1): Linear(in_features=128, out_features=512, bias=True)
          (act): GELU()
          (pointwise_conv2): Linear(in_features=512, out_features=128, bias=True)
          (drop_path): Identity()
        )
        (1): ConvNeXtBlock(
          (depthwise_conv): Conv2d(128, 128, kernel_size=(7, 7), stride=(1, 1), padding=(3, 3), groups=128)
          (norm): LayerNorm2d((128,), eps=1e-06, elementwise_affine=True)
          (pointwise_conv1): Linear(in_features=128, out_features=512, bias=True)
          (act): GELU()
          (pointwise_conv2): Linear(in_features=512, out_features=128, bias=True)
          (drop_path): DropPath()
        )
        (2): ConvNeXtBlock(
          (depthwise_conv): Conv2d(128, 128, kernel_size=(7, 7), stride=(1, 1), padding=(3, 3), groups=128)
          (norm): LayerNorm2d((128,), eps=1e-06, elementwise_affine=True)
          (pointwise_conv1): Linear(in_features=128, out_features=512, bias=True)
          (act): GELU()
          (pointwise_conv2): Linear(in_features=512, out_features=128, bias=True)
          (drop_path): DropPath()
        )
      )
      (1): Sequential(
        (0): ConvNeXtBlock(
          (depthwise_conv): Conv2d(256, 256, kernel_size=(7, 7), stride=(1, 1), padding=(3, 3), groups=256)
          (norm): LayerNorm2d((256,), eps=1e-06, elementwise_affine=True)
          (pointwise_conv1): Linear(in_features=256, out_features=1024, bias=True)
          (act): GELU()
          (pointwise_conv2): Linear(in_features=1024, out_features=256, bias=True)
          (drop_path): DropPath()
        )
        (1): ConvNeXtBlock(
          (depthwise_conv): Conv2d(256, 256, kernel_size=(7, 7), stride=(1, 1), padding=(3, 3), groups=256)
          (norm): LayerNorm2d((256,), eps=1e-06, elementwise_affine=True)
          (pointwise_conv1): Linear(in_features=256, out_features=1024, bias=True)
          (act): GELU()
          (pointwise_conv2): Linear(in_features=1024, out_features=256, bias=True)
          (drop_path): DropPath()
        )
        (2): ConvNeXtBlock(
          (depthwise_conv): Conv2d(256, 256, kernel_size=(7, 7), stride=(1, 1), padding=(3, 3), groups=256)
          (norm): LayerNorm2d((256,), eps=1e-06, elementwise_affine=True)
          (pointwise_conv1): Linear(in_features=256, out_features=1024, bias=True)
          (act): GELU()
          (pointwise_conv2): Linear(in_features=1024, out_features=256, bias=True)
          (drop_path): DropPath()
        )
      )
      (2): Sequential(
        (0): ConvNeXtBlock(
          (depthwise_conv): Conv2d(512, 512, kernel_size=(7, 7), stride=(1, 1), padding=(3, 3), groups=512)
          (norm): LayerNorm2d((512,), eps=1e-06, elementwise_affine=True)
          (pointwise_conv1): Linear(in_features=512, out_features=2048, bias=True)
          (act): GELU()
          (pointwise_conv2): Linear(in_features=2048, out_features=512, bias=True)
          (drop_path): DropPath()
        )
        (1): ConvNeXtBlock(
          (depthwise_conv): Conv2d(512, 512, kernel_size=(7, 7), stride=(1, 1), padding=(3, 3), groups=512)
          (norm): LayerNorm2d((512,), eps=1e-06, elementwise_affine=True)
          (pointwise_conv1): Linear(in_features=512, out_features=2048, bias=True)
          (act): GELU()
          (pointwise_conv2): Linear(in_features=2048, out_features=512, bias=True)
          (drop_path): DropPath()
        )
        (2): ConvNeXtBlock(
          (depthwise_conv): Conv2d(512, 512, kernel_size=(7, 7), stride=(1, 1), padding=(3, 3), groups=512)
          (norm): LayerNorm2d((512,), eps=1e-06, elementwise_affine=True)
          (pointwise_conv1): Linear(in_features=512, out_features=2048, bias=True)
          (act): GELU()
          (pointwise_conv2): Linear(in_features=2048, out_features=512, bias=True)
          (drop_path): DropPath()
        )
        (3): ConvNeXtBlock(
          (depthwise_conv): Conv2d(512, 512, kernel_size=(7, 7), stride=(1, 1), padding=(3, 3), groups=512)
          (norm): LayerNorm2d((512,), eps=1e-06, elementwise_affine=True)
          (pointwise_conv1): Linear(in_features=512, out_features=2048, bias=True)
          (act): GELU()
          (pointwise_conv2): Linear(in_features=2048, out_features=512, bias=True)
          (drop_path): DropPath()
        )
        (4): ConvNeXtBlock(
          (depthwise_conv): Conv2d(512, 512, kernel_size=(7, 7), stride=(1, 1), padding=(3, 3), groups=512)
          (norm): LayerNorm2d((512,), eps=1e-06, elementwise_affine=True)
          (pointwise_conv1): Linear(in_features=512, out_features=2048, bias=True)
          (act): GELU()
          (pointwise_conv2): Linear(in_features=2048, out_features=512, bias=True)
          (drop_path): DropPath()
        )
        (5): ConvNeXtBlock(
          (depthwise_conv): Conv2d(512, 512, kernel_size=(7, 7), stride=(1, 1), padding=(3, 3), groups=512)
          (norm): LayerNorm2d((512,), eps=1e-06, elementwise_affine=True)
          (pointwise_conv1): Linear(in_features=512, out_features=2048, bias=True)
          (act): GELU()
          (pointwise_conv2): Linear(in_features=2048, out_features=512, bias=True)
          (drop_path): DropPath()
        )
        (6): ConvNeXtBlock(
          (depthwise_conv): Conv2d(512, 512, kernel_size=(7, 7), stride=(1, 1), padding=(3, 3), groups=512)
          (norm): LayerNorm2d((512,), eps=1e-06, elementwise_affine=True)
          (pointwise_conv1): Linear(in_features=512, out_features=2048, bias=True)
          (act): GELU()
          (pointwise_conv2): Linear(in_features=2048, out_features=512, bias=True)
          (drop_path): DropPath()
        )
        (7): ConvNeXtBlock(
          (depthwise_conv): Conv2d(512, 512, kernel_size=(7, 7), stride=(1, 1), padding=(3, 3), groups=512)
          (norm): LayerNorm2d((512,), eps=1e-06, elementwise_affine=True)
          (pointwise_conv1): Linear(in_features=512, out_features=2048, bias=True)
          (act): GELU()
          (pointwise_conv2): Linear(in_features=2048, out_features=512, bias=True)
          (drop_path): DropPath()
        )
        (8): ConvNeXtBlock(
          (depthwise_conv): Conv2d(512, 512, kernel_size=(7, 7), stride=(1, 1), padding=(3, 3), groups=512)
          (norm): LayerNorm2d((512,), eps=1e-06, elementwise_affine=True)
          (pointwise_conv1): Linear(in_features=512, out_features=2048, bias=True)
          (act): GELU()
          (pointwise_conv2): Linear(in_features=2048, out_features=512, bias=True)
          (drop_path): DropPath()
        )
        (9): ConvNeXtBlock(
          (depthwise_conv): Conv2d(512, 512, kernel_size=(7, 7), stride=(1, 1), padding=(3, 3), groups=512)
          (norm): LayerNorm2d((512,), eps=1e-06, elementwise_affine=True)
          (pointwise_conv1): Linear(in_features=512, out_features=2048, bias=True)
          (act): GELU()
          (pointwise_conv2): Linear(in_features=2048, out_features=512, bias=True)
          (drop_path): DropPath()
        )
        (10): ConvNeXtBlock(
          (depthwise_conv): Conv2d(512, 512, kernel_size=(7, 7), stride=(1, 1), padding=(3, 3), groups=512)
          (norm): LayerNorm2d((512,), eps=1e-06, elementwise_affine=True)
          (pointwise_conv1): Linear(in_features=512, out_features=2048, bias=True)
          (act): GELU()
          (pointwise_conv2): Linear(in_features=2048, out_features=512, bias=True)
          (drop_path): DropPath()
        )
        (11): ConvNeXtBlock(
          (depthwise_conv): Conv2d(512, 512, kernel_size=(7, 7), stride=(1, 1), padding=(3, 3), groups=512)
          (norm): LayerNorm2d((512,), eps=1e-06, elementwise_affine=True)
          (pointwise_conv1): Linear(in_features=512, out_features=2048, bias=True)
          (act): GELU()
          (pointwise_conv2): Linear(in_features=2048, out_features=512, bias=True)
          (drop_path): DropPath()
        )
        (12): ConvNeXtBlock(
          (depthwise_conv): Conv2d(512, 512, kernel_size=(7, 7), stride=(1, 1), padding=(3, 3), groups=512)
          (norm): LayerNorm2d((512,), eps=1e-06, elementwise_affine=True)
          (pointwise_conv1): Linear(in_features=512, out_features=2048, bias=True)
          (act): GELU()
          (pointwise_conv2): Linear(in_features=2048, out_features=512, bias=True)
          (drop_path): DropPath()
        )
        (13): ConvNeXtBlock(
          (depthwise_conv): Conv2d(512, 512, kernel_size=(7, 7), stride=(1, 1), padding=(3, 3), groups=512)
          (norm): LayerNorm2d((512,), eps=1e-06, elementwise_affine=True)
          (pointwise_conv1): Linear(in_features=512, out_features=2048, bias=True)
          (act): GELU()
          (pointwise_conv2): Linear(in_features=2048, out_features=512, bias=True)
          (drop_path): DropPath()
        )
        (14): ConvNeXtBlock(
          (depthwise_conv): Conv2d(512, 512, kernel_size=(7, 7), stride=(1, 1), padding=(3, 3), groups=512)
          (norm): LayerNorm2d((512,), eps=1e-06, elementwise_affine=True)
          (pointwise_conv1): Linear(in_features=512, out_features=2048, bias=True)
          (act): GELU()
          (pointwise_conv2): Linear(in_features=2048, out_features=512, bias=True)
          (drop_path): DropPath()
        )
        (15): ConvNeXtBlock(
          (depthwise_conv): Conv2d(512, 512, kernel_size=(7, 7), stride=(1, 1), padding=(3, 3), groups=512)
          (norm): LayerNorm2d((512,), eps=1e-06, elementwise_affine=True)
          (pointwise_conv1): Linear(in_features=512, out_features=2048, bias=True)
          (act): GELU()
          (pointwise_conv2): Linear(in_features=2048, out_features=512, bias=True)
          (drop_path): DropPath()
        )
        (16): ConvNeXtBlock(
          (depthwise_conv): Conv2d(512, 512, kernel_size=(7, 7), stride=(1, 1), padding=(3, 3), groups=512)
          (norm): LayerNorm2d((512,), eps=1e-06, elementwise_affine=True)
          (pointwise_conv1): Linear(in_features=512, out_features=2048, bias=True)
          (act): GELU()
          (pointwise_conv2): Linear(in_features=2048, out_features=512, bias=True)
          (drop_path): DropPath()
        )
        (17): ConvNeXtBlock(
          (depthwise_conv): Conv2d(512, 512, kernel_size=(7, 7), stride=(1, 1), padding=(3, 3), groups=512)
          (norm): LayerNorm2d((512,), eps=1e-06, elementwise_affine=True)
          (pointwise_conv1): Linear(in_features=512, out_features=2048, bias=True)
          (act): GELU()
          (pointwise_conv2): Linear(in_features=2048, out_features=512, bias=True)
          (drop_path): DropPath()
        )
        (18): ConvNeXtBlock(
          (depthwise_conv): Conv2d(512, 512, kernel_size=(7, 7), stride=(1, 1), padding=(3, 3), groups=512)
          (norm): LayerNorm2d((512,), eps=1e-06, elementwise_affine=True)
          (pointwise_conv1): Linear(in_features=512, out_features=2048, bias=True)
          (act): GELU()
          (pointwise_conv2): Linear(in_features=2048, out_features=512, bias=True)
          (drop_path): DropPath()
        )
        (19): ConvNeXtBlock(
          (depthwise_conv): Conv2d(512, 512, kernel_size=(7, 7), stride=(1, 1), padding=(3, 3), groups=512)
          (norm): LayerNorm2d((512,), eps=1e-06, elementwise_affine=True)
          (pointwise_conv1): Linear(in_features=512, out_features=2048, bias=True)
          (act): GELU()
          (pointwise_conv2): Linear(in_features=2048, out_features=512, bias=True)
          (drop_path): DropPath()
        )
        (20): ConvNeXtBlock(
          (depthwise_conv): Conv2d(512, 512, kernel_size=(7, 7), stride=(1, 1), padding=(3, 3), groups=512)
          (norm): LayerNorm2d((512,), eps=1e-06, elementwise_affine=True)
          (pointwise_conv1): Linear(in_features=512, out_features=2048, bias=True)
          (act): GELU()
          (pointwise_conv2): Linear(in_features=2048, out_features=512, bias=True)
          (drop_path): DropPath()
        )
        (21): ConvNeXtBlock(
          (depthwise_conv): Conv2d(512, 512, kernel_size=(7, 7), stride=(1, 1), padding=(3, 3), groups=512)
          (norm): LayerNorm2d((512,), eps=1e-06, elementwise_affine=True)
          (pointwise_conv1): Linear(in_features=512, out_features=2048, bias=True)
          (act): GELU()
          (pointwise_conv2): Linear(in_features=2048, out_features=512, bias=True)
          (drop_path): DropPath()
        )
        (22): ConvNeXtBlock(
          (depthwise_conv): Conv2d(512, 512, kernel_size=(7, 7), stride=(1, 1), padding=(3, 3), groups=512)
          (norm): LayerNorm2d((512,), eps=1e-06, elementwise_affine=True)
          (pointwise_conv1): Linear(in_features=512, out_features=2048, bias=True)
          (act): GELU()
          (pointwise_conv2): Linear(in_features=2048, out_features=512, bias=True)
          (drop_path): DropPath()
        )
        (23): ConvNeXtBlock(
          (depthwise_conv): Conv2d(512, 512, kernel_size=(7, 7), stride=(1, 1), padding=(3, 3), groups=512)
          (norm): LayerNorm2d((512,), eps=1e-06, elementwise_affine=True)
          (pointwise_conv1): Linear(in_features=512, out_features=2048, bias=True)
          (act): GELU()
          (pointwise_conv2): Linear(in_features=2048, out_features=512, bias=True)
          (drop_path): DropPath()
        )
        (24): ConvNeXtBlock(
          (depthwise_conv): Conv2d(512, 512, kernel_size=(7, 7), stride=(1, 1), padding=(3, 3), groups=512)
          (norm): LayerNorm2d((512,), eps=1e-06, elementwise_affine=True)
          (pointwise_conv1): Linear(in_features=512, out_features=2048, bias=True)
          (act): GELU()
          (pointwise_conv2): Linear(in_features=2048, out_features=512, bias=True)
          (drop_path): DropPath()
        )
        (25): ConvNeXtBlock(
          (depthwise_conv): Conv2d(512, 512, kernel_size=(7, 7), stride=(1, 1), padding=(3, 3), groups=512)
          (norm): LayerNorm2d((512,), eps=1e-06, elementwise_affine=True)
          (pointwise_conv1): Linear(in_features=512, out_features=2048, bias=True)
          (act): GELU()
          (pointwise_conv2): Linear(in_features=2048, out_features=512, bias=True)
          (drop_path): DropPath()
        )
        (26): ConvNeXtBlock(
          (depthwise_conv): Conv2d(512, 512, kernel_size=(7, 7), stride=(1, 1), padding=(3, 3), groups=512)
          (norm): LayerNorm2d((512,), eps=1e-06, elementwise_affine=True)
          (pointwise_conv1): Linear(in_features=512, out_features=2048, bias=True)
          (act): GELU()
          (pointwise_conv2): Linear(in_features=2048, out_features=512, bias=True)
          (drop_path): DropPath()
        )
      )
      (3): Sequential(
        (0): ConvNeXtBlock(
          (depthwise_conv): Conv2d(1024, 1024, kernel_size=(7, 7), stride=(1, 1), padding=(3, 3), groups=1024)
          (norm): LayerNorm2d((1024,), eps=1e-06, elementwise_affine=True)
          (pointwise_conv1): Linear(in_features=1024, out_features=4096, bias=True)
          (act): GELU()
          (pointwise_conv2): Linear(in_features=4096, out_features=1024, bias=True)
          (drop_path): DropPath()
        )
        (1): ConvNeXtBlock(
          (depthwise_conv): Conv2d(1024, 1024, kernel_size=(7, 7), stride=(1, 1), padding=(3, 3), groups=1024)
          (norm): LayerNorm2d((1024,), eps=1e-06, elementwise_affine=True)
          (pointwise_conv1): Linear(in_features=1024, out_features=4096, bias=True)
          (act): GELU()
          (pointwise_conv2): Linear(in_features=4096, out_features=1024, bias=True)
          (drop_path): DropPath()
        )
        (2): ConvNeXtBlock(
          (depthwise_conv): Conv2d(1024, 1024, kernel_size=(7, 7), stride=(1, 1), padding=(3, 3), groups=1024)
          (norm): LayerNorm2d((1024,), eps=1e-06, elementwise_affine=True)
          (pointwise_conv1): Linear(in_features=1024, out_features=4096, bias=True)
          (act): GELU()
          (pointwise_conv2): Linear(in_features=4096, out_features=1024, bias=True)
          (drop_path): DropPath()
        )
      )
    )
    (norm0): LayerNorm2d((128,), eps=1e-06, elementwise_affine=True)
    (norm1): LayerNorm2d((256,), eps=1e-06, elementwise_affine=True)
    (norm2): LayerNorm2d((512,), eps=1e-06, elementwise_affine=True)
    (norm3): LayerNorm2d((1024,), eps=1e-06, elementwise_affine=True)
  )
  init_cfg={'type': 'Pretrained', 'checkpoint': 'https://download.openmmlab.com/mmclassification/v0/convnext/downstream/convnext-base_3rdparty_in21k_20220301-262fd037.pth', 'prefix': 'backbone.'}
  (decode_head): UPerHead(
    input_transform=multiple_select, ignore_index=255, align_corners=False
    (loss_decode): Smooth(
      (find_edge_Conv): Conv2d(1, 1, kernel_size=(11, 11), stride=(1, 1), padding=(5, 5), bias=False)
    )
    (conv_seg): Conv2d(512, 15, kernel_size=(1, 1), stride=(1, 1))
    (dropout): Dropout2d(p=0.1, inplace=False)
    (psp_modules): PPM(
      (0): Sequential(
        (0): AdaptiveAvgPool2d(output_size=1)
        (1): ConvModule(
          (conv): Conv2d(1024, 512, kernel_size=(1, 1), stride=(1, 1), bias=False)
          (bn): _BatchNormXd(512, eps=1e-05, momentum=0.1, affine=True, track_running_stats=True)
          (activate): ReLU(inplace=True)
        )
      )
      (1): Sequential(
        (0): AdaptiveAvgPool2d(output_size=2)
        (1): ConvModule(
          (conv): Conv2d(1024, 512, kernel_size=(1, 1), stride=(1, 1), bias=False)
          (bn): _BatchNormXd(512, eps=1e-05, momentum=0.1, affine=True, track_running_stats=True)
          (activate): ReLU(inplace=True)
        )
      )
      (2): Sequential(
        (0): AdaptiveAvgPool2d(output_size=3)
        (1): ConvModule(
          (conv): Conv2d(1024, 512, kernel_size=(1, 1), stride=(1, 1), bias=False)
          (bn): _BatchNormXd(512, eps=1e-05, momentum=0.1, affine=True, track_running_stats=True)
          (activate): ReLU(inplace=True)
        )
      )
      (3): Sequential(
        (0): AdaptiveAvgPool2d(output_size=6)
        (1): ConvModule(
          (conv): Conv2d(1024, 512, kernel_size=(1, 1), stride=(1, 1), bias=False)
          (bn): _BatchNormXd(512, eps=1e-05, momentum=0.1, affine=True, track_running_stats=True)
          (activate): ReLU(inplace=True)
        )
      )
    )
    (bottleneck): ConvModule(
      (conv): Conv2d(3072, 512, kernel_size=(3, 3), stride=(1, 1), padding=(1, 1), bias=False)
      (bn): _BatchNormXd(512, eps=1e-05, momentum=0.1, affine=True, track_running_stats=True)
      (activate): ReLU(inplace=True)
    )
    (lateral_convs): ModuleList(
      (0): ConvModule(
        (conv): Conv2d(128, 512, kernel_size=(1, 1), stride=(1, 1), bias=False)
        (bn): _BatchNormXd(512, eps=1e-05, momentum=0.1, affine=True, track_running_stats=True)
        (activate): ReLU()
      )
      (1): ConvModule(
        (conv): Conv2d(256, 512, kernel_size=(1, 1), stride=(1, 1), bias=False)
        (bn): _BatchNormXd(512, eps=1e-05, momentum=0.1, affine=True, track_running_stats=True)
        (activate): ReLU()
      )
      (2): ConvModule(
        (conv): Conv2d(512, 512, kernel_size=(1, 1), stride=(1, 1), bias=False)
        (bn): _BatchNormXd(512, eps=1e-05, momentum=0.1, affine=True, track_running_stats=True)
        (activate): ReLU()
      )
    )
    (fpn_convs): ModuleList(
      (0): ConvModule(
        (conv): Conv2d(512, 512, kernel_size=(3, 3), stride=(1, 1), padding=(1, 1), bias=False)
        (bn): _BatchNormXd(512, eps=1e-05, momentum=0.1, affine=True, track_running_stats=True)
        (activate): ReLU()
      )
      (1): ConvModule(
        (conv): Conv2d(512, 512, kernel_size=(3, 3), stride=(1, 1), padding=(1, 1), bias=False)
        (bn): _BatchNormXd(512, eps=1e-05, momentum=0.1, affine=True, track_running_stats=True)
        (activate): ReLU()
      )
      (2): ConvModule(
        (conv): Conv2d(512, 512, kernel_size=(3, 3), stride=(1, 1), padding=(1, 1), bias=False)
        (bn): _BatchNormXd(512, eps=1e-05, momentum=0.1, affine=True, track_running_stats=True)
        (activate): ReLU()
      )
    )
    (fpn_bottleneck): ConvModule(
      (conv): Conv2d(2048, 512, kernel_size=(3, 3), stride=(1, 1), padding=(1, 1), bias=False)
      (bn): _BatchNormXd(512, eps=1e-05, momentum=0.1, affine=True, track_running_stats=True)
      (activate): ReLU(inplace=True)
    )
  )
  init_cfg={'type': 'Normal', 'std': 0.01, 'override': {'name': 'conv_seg'}}
  (auxiliary_head): FCNHead(
    input_transform=None, ignore_index=255, align_corners=False
    (loss_decode): CrossEntropyLoss()
    (conv_seg): Conv2d(256, 15, kernel_size=(1, 1), stride=(1, 1))
    (dropout): Dropout2d(p=0.1, inplace=False)
    (convs): Sequential(
      (0): ConvModule(
        (conv): Conv2d(512, 256, kernel_size=(3, 3), stride=(1, 1), padding=(1, 1), bias=False)
        (bn): _BatchNormXd(256, eps=1e-05, momentum=0.1, affine=True, track_running_stats=True)
        (activate): ReLU(inplace=True)
      )
    )
  )
  init_cfg={'type': 'Normal', 'std': 0.01, 'override': {'name': 'conv_seg'}}
)
2022-03-09 14:22:48,399 - mmseg - INFO - Loaded 766 images
2022-03-09 14:22:56,948 - mmseg - INFO - self.paramwise_cfg is {'decay_rate': 0.9, 'decay_type': 'stage_wise', 'num_layers': 12}
…
